models/mnist/mnist_lin.pt (torch, 32495 bytes, 2 tensors)

lin.weight f4 [10, 784]
00000000: 708f 10bd ea83 17bc 4237 eb3c 73e6 a4bc
00000010: 8d29 013d 46a1 4ebc 807e 693a c6df 07bd
00000020: 3224 1abc 40f2 5eba c057 e6bb 1079 c63c
00000030: 558c 49be 5d29 13be 47ba c1bd b828 0fbe
00000040: ea94 21bc d8a2 bf3c a4d0 403c af24 0ebd
00000050: 808a 9ab9 70cb 3e3c a4b7 5e3c 4a34 ddbc
00000060: b0f0 c7bc ba51 893c 0044 d8b9 fc1f 15bc
00000070: 1a8b dc3c 587e 01bc 9af9 bb3c 0c44 f5bc
00000080: cf59 953b eda8 febc 537e 21bd 851a 14bd
00000090: 7a27 3bbd 23bb c1bd 1beb 62be c037 543e
000000a0: b348 483e 5ed7 2a3e 2e1d bebe 69e2 293e
000000b0: cb06 2a3e 395a 0f3e 4b30 90be dc39 5abe
000000c0: 4786 1fbe 632c 95bd 187d 01bd d225 90bc
000000d0: e0c8 5f3c 4029 ab3a 7cca 28bc 102f 7a3c
000000e0: 618c 063d da31 d5bc 7b91 adbc e208 4f3e
000000f0: ef15 6b3e 7a2c 4fbe 6f9e 5bbe b214 dc3b
00000100: df55 2fbe 9903 19bf 584f 08bf 50ff 5bbe
00000110: 86f3 c3be 4f46 50be dbc5 18bf fc46 2cbf
00000120: 01bf a2bc f47a 98bd ea7b 3ebf 8d9b 11bf
00000130: f9f7 3ebf d6a2 04bf 237e e6be 3915 81be
00000140: 43fb 85be 1e3c 7ebd 4088 c6ba 2e6f ad3c
00000150: e007 64bc 7809 40bc 0c67 89bd 4d8a 1abd
00000160: 5522 17be daec d6be 0a30 d4be cad2 ccbe
00000170: 32fd d33c c9d7 0e3e 5de4 303e 4332 8fbd
00000180: f385 c33c 1a6b 08bd 90b1 61bd 2bbc 513e
00000190: 67b3 8abd 5f6c 20bd 3ffb 42be b027 51be
000001a0: 24c6 6e3d 7a5b 4dbe e139 ccbe 833e 52be
000001b0: aa23 00bf 58f9 263e c07a 77be c3ce a6bc
000001c0: 1a2b fd3c 7354 51bc 6df3 ccbd c976 83be
000001d0: 4418 c0be 8aa0 44bf 6d98 b2bd 0bd3 6c3d
000001e0: 8e85 29be 7a8f 3cbe 551f 303d fdff 5fbd
000001f0: d806 89bd 9954 adbc 9222 cdbc 84fd 9bbd
00000200: 4b25 ecbd 9805 af3d b5e1 023d 45a7 06be
00000210: b89c b0bd b191 29be 43f7 27be dfc7 793c
00000220: 6680 85be 624c 00bf 7ba8 ccbe 4a71 26be
00000230: 7e05 be3c 18ce 80bb ea54 94be 7938 7abe
00000240: df86 b6be 7c40 bcbd e289 44bb f544 82bd
00000250: 7cba 98bd 5e2e 9fbd 28dd b73d 0d62 a6bd
00000260: 8103 953d 0f01 743e 39d1 033e e908 c73d
00000270: d838 0e3e 15d9 2d3e 110e 89bb 94d1 053e
00000280: ade5 14bd 9da4 e0bc 2197 f83d b38a 5ebd
00000290: 27c4 27bf 85ad 2fbf c26e f6be 9069 86be
000002a0: 1499 0fbd ac2c 2dbe ef30 c6be 7cf9 8cbe
000002b0: a1cb c5be 355b 23be 5402 883d a841 41be
000002c0: c287 debe d6f5 60be ebfd a3bd 45f8 34bd
000002d0: 066d c0bd efee 3a3c f4cc 6ebd ab2f 913c
000002e0: 8e65 583d aba4 263e e186 993d 89c1 f0bd
000002f0: be59 dd3d 8bdf 1abe f577 f23d 5427 243e
00000300: 494f 2fbe 7716 73bf d1df 49bf d4d4 4abe
00000310: fd7b 93bc 0b5d 99be 556a 74be f7b8 93be
00000320: 3c6e acbe f6f6 c93c 8bef 7fbc c263 87be
00000330: 8244 ebbc 0d76 a23c a778 10bd 436c 88bd
00000340: 8ebf a83d ad61 113d e6b8 8f3e fc3a 093e
00000350: 2d56 bd3d 8132 7e3e 231d 833e 9d34 583e
00000360: 806d 9a3d cecc 9c3b 2061 c9bd 3593 4e3d
00000370: 9a17 4a3c 5a5b d6be 2001 6ebf 45cf 28be
00000380: 44fd 9a3e aef1 91be 3dd9 453e 2ace 4d3e
00000390: d3c5 59be 9e93 b0be 6ce5 8dbd 891b 02be
000003a0: 4a10 0cbc 942a c5bd 185c d73c 5c26 31bd
000003b0: 54af acbc 40d6 323d 173e 6a3d d876 983d
000003c0: fd3c 5d3e 28fe aa3e 90e9 4d3e c728 153e
000003d0: 9486 fd3d ea5b 843d 6ce2 34bd 7487 5dbc
000003e0: 7f3b 4b3c 3b15 1abf ceff 67bf 8adc b9be
000003f0: 3eb0 0abd 946b 8bbd 839c a53e 6d83 973e
-0.035293043 -0.009247759 0.028712872 -0.020129418 0.031533767 -0.012611693 0.00089070946 -0.03317239
-0.009408044 -0.0008504726 -0.0070295036 0.024227649 -0.19682439 -0.14371248 -0.09459358 -0.13980377
-0.009862164 0.02339308 0.011768494 -0.034702953 -0.0002947636 0.011645183 0.013593588 -0.027002472
-0.02440676 0.016762603 -0.00041249394 -0.009101864 0.026921798 -0.007903658 0.022946168 -0.029939674
0.004557825 -0.03108641 -0.039427113 -0.036158103 -0.045691945 -0.094595216 -0.22159998 0.20724392
0.19558983 0.16683719 -0.37131637 0.16590275 0.16604154 0.13999261 -0.28161845 -0.21311134
-0.15578566 -0.07283857 -0.03161344 -0.01759616 0.013658732 0.0013058558 -0.010302182 0.01527001
0.03284872 -0.026024748 -0.021187535 0.20218232 0.22957586 -0.2023181 -0.21447156 0.0067163343
-0.17122601 -0.59771115 -0.5324607 -0.21484113 -0.3827173 -0.2033932 -0.59676903 -0.67295814
-0.019866468 -0.074453264 -0.7440783 -0.56877977 -0.74597126 -0.5181097 -0.4501811 -0.25211504
-0.2616826 -0.06206905 -0.0015146807 0.021171179 -0.013917893 -0.0117210075 -0.06709108 -0.03772955
-0.1475919 -0.41977578 -0.414429 -0.4000457 0.025877569 0.13949503 0.17274614 -0.069920085
0.023867583 -0.033305265 -0.055100977 0.20481937 -0.067724995 -0.03916585 -0.19041155 -0.20425296
0.05829443 -0.20054427 -0.39887908 -0.20531659 -0.5005442 0.16306055 -0.24167919 -0.020362264
0.030904341 -0.012776482 -0.10007367 -0.25676563 -0.37518513 -0.76807463 -0.08720479 0.057818454
-0.16554853 -0.18414107 0.04299863 -0.05468749 -0.066907585 -0.021158503 -0.025040898 -0.07616714
-0.115305506 0.08545989 0.031953532 -0.13149746 -0.08623642 -0.16559483 -0.16402917 0.015245407
-0.26074523 -0.5011655 -0.3997229 -0.16254154 0.023195978 -0.0039308183 -0.28971034 -0.24435605
-0.35649773 -0.09191987 -0.002998941 -0.06360809 -0.07457444 -0.07772516 0.08977729 -0.081241705
0.07276059 0.23828529 0.12872781 0.09718496 0.13888872 0.16977341 -0.004182585 0.13068229
-0.03635185 -0.027422244 0.121382006 -0.054331493 -0.6553368 -0.68624145 -0.48131377 -0.26252413
-0.035058096 -0.16911572 -0.38709208 -0.2753409 -0.3863192 -0.15952761 0.06641069 -0.18872702
-0.4346295 -0.21968779 -0.080074154 -0.04418208 -0.093957946 0.011409505 -0.058300927 0.017722925
0.052831225 0.16273753 0.07496429 -0.11755664 0.108081326 -0.15124337 0.11839286 0.16030627
-0.17120089 -0.94956154 -0.7885714 -0.1980775 -0.018003458 -0.299538 -0.23868687 -0.28852054
-0.33677852 0.024653893 -0.015621076 -0.26443297 -0.02871919 0.019831682 -0.035271313 -0.06661274
0.08239661 0.03549354 0.28070754 0.13401407 0.09244952 0.24823953 0.25608167 0.2111382
0.07540417 0.004785157 -0.09832978 0.050433356 0.012334729 -0.4186657 -0.92970467 -0.16485317
0.3027135 -0.285047 0.19321151 0.20098177 -0.2126687 -0.34487623 -0.069285244 -0.12705816
-0.0085488055 -0.09627262 0.02628903 -0.043249473 -0.021079697 0.043661356 0.05718812 0.07444543
0.21605296 0.3339703 0.20108628 0.14566337 0.12379184 0.06462844 -0.044161245 -0.013521064
0.012404322 -0.60188645 -0.906247 -0.3630107 -0.033859484 -0.06807628 0.3234597 0.29592457

lin.bias f4 [10]
00000000: b3e8 d5be b0e6 113f 14bc 623e 5ad3 a8be
00000010: dda7 b83d 987c a33f 3de4 a8be 0a70 2b3f
00000020: 4eaa afbf d9a0 b1be
-0.41779098 0.56992626 0.22142059 -0.32973748 0.090163924 1.2772398 -0.32986632 0.66967833
-1.3723848 -0.3469303
